#loc = loc("/auto/home/menuab/code/YNNtitan/torchinductor_menuab/z7/cz7lvwcnhlwhba2xdcdihwxhdspa6ez5ppewcjdwdknjdvsplulr.py":18:0)
#loc1 = loc(unknown)
module {
  tt.func public @triton_(%arg0: !tt.ptr<f32> {tt.divisibility = 16 : i32} loc("/auto/home/menuab/code/YNNtitan/torchinductor_menuab/z7/cz7lvwcnhlwhba2xdcdihwxhdspa6ez5ppewcjdwdknjdvsplulr.py":18:0), %arg1: !tt.ptr<bf16> {tt.divisibility = 16 : i32} loc("/auto/home/menuab/code/YNNtitan/torchinductor_menuab/z7/cz7lvwcnhlwhba2xdcdihwxhdspa6ez5ppewcjdwdknjdvsplulr.py":18:0), %arg2: i32 {tt.divisibility = 16 : i32} loc("/auto/home/menuab/code/YNNtitan/torchinductor_menuab/z7/cz7lvwcnhlwhba2xdcdihwxhdspa6ez5ppewcjdwdknjdvsplulr.py":18:0), %arg3: i32 {tt.divisibility = 16 : i32} loc("/auto/home/menuab/code/YNNtitan/torchinductor_menuab/z7/cz7lvwcnhlwhba2xdcdihwxhdspa6ez5ppewcjdwdknjdvsplulr.py":18:0)) attributes {noinline = false} {
    %cst = arith.constant dense<2048> : tensor<1x64xi32> loc(#loc1)
    %c32_i32 = arith.constant 32 : i32 loc(#loc1)
    %0 = tt.get_program_id x : i32 loc(#loc2)
    %1 = arith.muli %0, %c32_i32 : i32 loc(#loc3)
    %2 = tt.make_range {end = 32 : i32, start = 0 : i32} : tensor<32xi32> loc(#loc4)
    %3 = tt.expand_dims %2 {axis = 1 : i32} : tensor<32xi32> -> tensor<32x1xi32> loc(#loc5)
    %4 = tt.splat %1 : i32 -> tensor<32x1xi32> loc(#loc6)
    %5 = arith.addi %4, %3 : tensor<32x1xi32> loc(#loc6)
    %6 = tt.make_range {end = 64 : i32, start = 0 : i32} : tensor<64xi32> loc(#loc7)
    %7 = tt.expand_dims %6 {axis = 0 : i32} : tensor<64xi32> -> tensor<1x64xi32> loc(#loc8)
    %8 = arith.muli %7, %cst : tensor<1x64xi32> loc(#loc9)
    %9 = tt.broadcast %5 : tensor<32x1xi32> -> tensor<32x64xi32> loc(#loc10)
    %10 = tt.broadcast %8 : tensor<1x64xi32> -> tensor<32x64xi32> loc(#loc10)
    %11 = arith.addi %9, %10 : tensor<32x64xi32> loc(#loc10)
    %12 = tt.splat %arg0 : !tt.ptr<f32> -> tensor<32x64x!tt.ptr<f32>> loc(#loc11)
    %13 = tt.addptr %12, %11 : tensor<32x64x!tt.ptr<f32>>, tensor<32x64xi32> loc(#loc11)
    %14 = tt.load %13 : tensor<32x64x!tt.ptr<f32>> loc(#loc12)
    %15 = "tt.reduce"(%14) <{axis = 1 : i32}> ({
    ^bb0(%arg4: f32 loc(unknown), %arg5: f32 loc(unknown)):
      %20 = arith.addf %arg4, %arg5 : f32 loc(#loc22)
      tt.reduce.return %20 : f32 loc(#loc20)
    }) : (tensor<32x64xf32>) -> tensor<32xf32> loc(#loc20)
    %16 = tt.expand_dims %15 {axis = 1 : i32} : tensor<32xf32> -> tensor<32x1xf32> loc(#loc16)
    %17 = tt.splat %arg1 : !tt.ptr<bf16> -> tensor<32x1x!tt.ptr<bf16>> loc(#loc17)
    %18 = tt.addptr %17, %5 : tensor<32x1x!tt.ptr<bf16>>, tensor<32x1xi32> loc(#loc17)
    %19 = arith.truncf %16 : tensor<32x1xf32> to tensor<32x1xbf16> loc(#loc18)
    tt.store %18, %19 : tensor<32x1x!tt.ptr<bf16>> loc(#loc18)
    tt.return loc(#loc19)
  } loc(#loc)
} loc(#loc)
#loc2 = loc("/auto/home/menuab/code/YNNtitan/torchinductor_menuab/z7/cz7lvwcnhlwhba2xdcdihwxhdspa6ez5ppewcjdwdknjdvsplulr.py":22:28)
#loc3 = loc("/auto/home/menuab/code/YNNtitan/torchinductor_menuab/z7/cz7lvwcnhlwhba2xdcdihwxhdspa6ez5ppewcjdwdknjdvsplulr.py":22:33)
#loc4 = loc("/auto/home/menuab/code/YNNtitan/torchinductor_menuab/z7/cz7lvwcnhlwhba2xdcdihwxhdspa6ez5ppewcjdwdknjdvsplulr.py":23:36)
#loc5 = loc("/auto/home/menuab/code/YNNtitan/torchinductor_menuab/z7/cz7lvwcnhlwhba2xdcdihwxhdspa6ez5ppewcjdwdknjdvsplulr.py":23:44)
#loc6 = loc("/auto/home/menuab/code/YNNtitan/torchinductor_menuab/z7/cz7lvwcnhlwhba2xdcdihwxhdspa6ez5ppewcjdwdknjdvsplulr.py":23:23)
#loc7 = loc("/auto/home/menuab/code/YNNtitan/torchinductor_menuab/z7/cz7lvwcnhlwhba2xdcdihwxhdspa6ez5ppewcjdwdknjdvsplulr.py":25:26)
#loc8 = loc("/auto/home/menuab/code/YNNtitan/torchinductor_menuab/z7/cz7lvwcnhlwhba2xdcdihwxhdspa6ez5ppewcjdwdknjdvsplulr.py":25:34)
#loc9 = loc("/auto/home/menuab/code/YNNtitan/torchinductor_menuab/z7/cz7lvwcnhlwhba2xdcdihwxhdspa6ez5ppewcjdwdknjdvsplulr.py":30:41)
#loc10 = loc("/auto/home/menuab/code/YNNtitan/torchinductor_menuab/z7/cz7lvwcnhlwhba2xdcdihwxhdspa6ez5ppewcjdwdknjdvsplulr.py":30:36)
#loc11 = loc("/auto/home/menuab/code/YNNtitan/torchinductor_menuab/z7/cz7lvwcnhlwhba2xdcdihwxhdspa6ez5ppewcjdwdknjdvsplulr.py":30:30)
#loc12 = loc("/auto/home/menuab/code/YNNtitan/torchinductor_menuab/z7/cz7lvwcnhlwhba2xdcdihwxhdspa6ez5ppewcjdwdknjdvsplulr.py":30:47)
#loc13 = loc("/auto/home/menuab/miniforge3/envs/titan/lib/python3.10/site-packages/triton/language/standard.py":267:36)
#loc14 = loc("/auto/home/menuab/code/YNNtitan/torchinductor_menuab/z7/cz7lvwcnhlwhba2xdcdihwxhdspa6ez5ppewcjdwdknjdvsplulr.py":32:24)
#loc15 = loc("/auto/home/menuab/miniforge3/envs/titan/lib/python3.10/site-packages/triton/language/standard.py":256:15)
#loc16 = loc("/auto/home/menuab/code/YNNtitan/torchinductor_menuab/z7/cz7lvwcnhlwhba2xdcdihwxhdspa6ez5ppewcjdwdknjdvsplulr.py":32:27)
#loc17 = loc("/auto/home/menuab/code/YNNtitan/torchinductor_menuab/z7/cz7lvwcnhlwhba2xdcdihwxhdspa6ez5ppewcjdwdknjdvsplulr.py":33:25)
#loc18 = loc("/auto/home/menuab/code/YNNtitan/torchinductor_menuab/z7/cz7lvwcnhlwhba2xdcdihwxhdspa6ez5ppewcjdwdknjdvsplulr.py":33:36)
#loc19 = loc("/auto/home/menuab/code/YNNtitan/torchinductor_menuab/z7/cz7lvwcnhlwhba2xdcdihwxhdspa6ez5ppewcjdwdknjdvsplulr.py":33:4)
#loc20 = loc(callsite(#loc13 at #loc14))
#loc21 = loc(callsite(#loc15 at #loc13))
#loc22 = loc(callsite(#loc21 at #loc14))
