#loc = loc("/auto/home/menuab/code/YNNtitan/torchinductor_menuab/hp/chp5jrr4dptyf2rtzspmprdfc3bzbyagq5kcxockxucqokwt3mpv.py":18:0)
module {
  tt.func public @triton_(%arg0: !tt.ptr<bf16> {tt.divisibility = 16 : i32} loc("/auto/home/menuab/code/YNNtitan/torchinductor_menuab/hp/chp5jrr4dptyf2rtzspmprdfc3bzbyagq5kcxockxucqokwt3mpv.py":18:0), %arg1: !tt.ptr<bf16> {tt.divisibility = 16 : i32} loc("/auto/home/menuab/code/YNNtitan/torchinductor_menuab/hp/chp5jrr4dptyf2rtzspmprdfc3bzbyagq5kcxockxucqokwt3mpv.py":18:0), %arg2: i32 {tt.divisibility = 16 : i32} loc("/auto/home/menuab/code/YNNtitan/torchinductor_menuab/hp/chp5jrr4dptyf2rtzspmprdfc3bzbyagq5kcxockxucqokwt3mpv.py":18:0)) attributes {noinline = false} {
    %cst = arith.constant dense<256> : tensor<1024xi32> loc(#loc1)
    %cst_0 = arith.constant dense<64> : tensor<1024xi32> loc(#loc1)
    %c1024_i32 = arith.constant 1024 : i32 loc(#loc1)
    %0 = tt.get_program_id x : i32 loc(#loc2)
    %1 = arith.muli %0, %c1024_i32 : i32 loc(#loc3)
    %2 = tt.make_range {end = 1024 : i32, start = 0 : i32} : tensor<1024xi32> loc(#loc4)
    %3 = tt.splat %1 : i32 -> tensor<1024xi32> loc(#loc5)
    %4 = arith.addi %3, %2 : tensor<1024xi32> loc(#loc5)
    %5 = arith.remsi %4, %cst_0 : tensor<1024xi32> loc(#loc6)
    %6 = arith.divsi %4, %cst : tensor<1024xi32> loc(#loc7)
    %7 = arith.muli %6, %cst_0 : tensor<1024xi32> loc(#loc8)
    %8 = arith.addi %5, %7 : tensor<1024xi32> loc(#loc9)
    %9 = tt.splat %arg0 : !tt.ptr<bf16> -> tensor<1024x!tt.ptr<bf16>> loc(#loc10)
    %10 = tt.addptr %9, %8 : tensor<1024x!tt.ptr<bf16>>, tensor<1024xi32> loc(#loc10)
    %11 = tt.load %10 evictionPolicy = evict_last : tensor<1024x!tt.ptr<bf16>> loc(#loc11)
    %12 = arith.extf %11 : tensor<1024xbf16> to tensor<1024xf32> loc(#loc12)
    %13 = tt.splat %arg1 : !tt.ptr<bf16> -> tensor<1024x!tt.ptr<bf16>> loc(#loc13)
    %14 = tt.addptr %13, %4 : tensor<1024x!tt.ptr<bf16>>, tensor<1024xi32> loc(#loc13)
    %15 = arith.truncf %12 : tensor<1024xf32> to tensor<1024xbf16> loc(#loc14)
    tt.store %14, %15 : tensor<1024x!tt.ptr<bf16>> loc(#loc14)
    tt.return loc(#loc15)
  } loc(#loc)
} loc(#loc)
#loc1 = loc(unknown)
#loc2 = loc("/auto/home/menuab/code/YNNtitan/torchinductor_menuab/hp/chp5jrr4dptyf2rtzspmprdfc3bzbyagq5kcxockxucqokwt3mpv.py":20:28)
#loc3 = loc("/auto/home/menuab/code/YNNtitan/torchinductor_menuab/hp/chp5jrr4dptyf2rtzspmprdfc3bzbyagq5kcxockxucqokwt3mpv.py":20:33)
#loc4 = loc("/auto/home/menuab/code/YNNtitan/torchinductor_menuab/hp/chp5jrr4dptyf2rtzspmprdfc3bzbyagq5kcxockxucqokwt3mpv.py":21:36)
#loc5 = loc("/auto/home/menuab/code/YNNtitan/torchinductor_menuab/hp/chp5jrr4dptyf2rtzspmprdfc3bzbyagq5kcxockxucqokwt3mpv.py":21:23)
#loc6 = loc("/auto/home/menuab/code/YNNtitan/torchinductor_menuab/hp/chp5jrr4dptyf2rtzspmprdfc3bzbyagq5kcxockxucqokwt3mpv.py":23:18)
#loc7 = loc("/auto/home/menuab/code/YNNtitan/torchinductor_menuab/hp/chp5jrr4dptyf2rtzspmprdfc3bzbyagq5kcxockxucqokwt3mpv.py":24:20)
#loc8 = loc("/auto/home/menuab/code/YNNtitan/torchinductor_menuab/hp/chp5jrr4dptyf2rtzspmprdfc3bzbyagq5kcxockxucqokwt3mpv.py":26:39)
#loc9 = loc("/auto/home/menuab/code/YNNtitan/torchinductor_menuab/hp/chp5jrr4dptyf2rtzspmprdfc3bzbyagq5kcxockxucqokwt3mpv.py":26:36)
#loc10 = loc("/auto/home/menuab/code/YNNtitan/torchinductor_menuab/hp/chp5jrr4dptyf2rtzspmprdfc3bzbyagq5kcxockxucqokwt3mpv.py":26:30)
#loc11 = loc("/auto/home/menuab/code/YNNtitan/torchinductor_menuab/hp/chp5jrr4dptyf2rtzspmprdfc3bzbyagq5kcxockxucqokwt3mpv.py":26:45)
#loc12 = loc("/auto/home/menuab/code/YNNtitan/torchinductor_menuab/hp/chp5jrr4dptyf2rtzspmprdfc3bzbyagq5kcxockxucqokwt3mpv.py":26:84)
#loc13 = loc("/auto/home/menuab/code/YNNtitan/torchinductor_menuab/hp/chp5jrr4dptyf2rtzspmprdfc3bzbyagq5kcxockxucqokwt3mpv.py":27:25)
#loc14 = loc("/auto/home/menuab/code/YNNtitan/torchinductor_menuab/hp/chp5jrr4dptyf2rtzspmprdfc3bzbyagq5kcxockxucqokwt3mpv.py":27:36)
#loc15 = loc("/auto/home/menuab/code/YNNtitan/torchinductor_menuab/hp/chp5jrr4dptyf2rtzspmprdfc3bzbyagq5kcxockxucqokwt3mpv.py":27:4)
